…
snapshot_prefix: "caffenet_fast_rcnn"
device_id: 0
train_state {
  level: 0
  stage: ""
}
average_loss: 100
I0123 17:26:19.041352 106129 solver.cpp:81] Creating training net from train_net file: models/CaffeNet/train.prototxt
I0123 17:26:19.042203 106129 net.cpp:58] Initializing net from parameters: 
name: "CaffeNet"
state {
  phase: TRAIN
  level: 0
  stage: ""
}
layer {
  name: "data"
  type: "ROIData"
  top: "data"
  top: "rois"
  top: "labels"
  top: "bbox_targets"
  top: "bbox_loss_weights"
  roi_data_param {
    config_file: "cfg/config.cfg"
  }
}
layer {
  name: "conv1"
  type: "Convolution"
  bottom: "data"
  top: "conv1"
  param {
    lr_mult: 0
    decay_mult: 0
  }
  param {
    lr_mult: 0
    decay_mult: 0
  }
  convolution_param {
    num_output: 96
    pad: 5
    kernel_size: 11
    stride: 4
  }
}
layer {
  name: "relu1"
  type: "ReLU"
  bottom: "conv1"
  top: "conv1"
}
layer {
  name: "pool1"
  type: "Pooling"
  bottom: "conv1"
  top: "pool1"
  pooling_param {
    pool: MAX
    kernel_size: 3
    stride: 2
    pad: 1
  }
}
layer {
  name: "norm1"
  type: "LRN"
  bottom: "pool1"
  top: "norm1"
  lrn_param {
    local_size: 5
    alpha: 0.0001
    beta: 0.75
  }
}
layer {
  name: "conv2"
  type: "Convolution"
  bottom: "norm1"
  top: "conv2"
  param {
    lr_mult: 1
    decay_mult: 1
  }
  param {
    lr_mult: 2
    decay_mult: 0
  }
  convolution_param {
    num_output: 256
    pad: 2
    kernel_size: 5
    group: 2
  }
}
layer {
  name: "relu2"
  type: "ReLU"
  bottom: "conv2"
  top: "conv2"
}
layer {
  name: "pool2"
  type: "Pooling"
  bottom: "conv2"
  top: "pool2"
  pooling_param {
    pool: MAX
    kernel_size: 3
    stride: 2
    pad: 1
  }
}
layer {
  name: "norm2"
  type: "LRN"
  bottom: "pool2"
  top: "norm2"
  lrn_param {
    local_size: 5
    alpha: 0.0001
    beta: 0.75
  }
}
layer {
  name: "conv3"
  type: "Convolution"
  bottom: "norm2"
  top: "conv3"
  param {
    lr_mult: 1
    decay_mult: 1
  }
  param {
    lr_mult: 2
    decay_mult: 0
  }
  convolution_param {
    num_output: 384
    pad: 1
    kernel_size: 3
  }
}
layer {
  name: "relu3"
  type: "ReLU"
  bottom: "conv3"
  top: "conv3"
}
layer {
  name: "conv4"
  type: "Convolution"
  bottom: "conv3"
  top: "conv4"
  param {
    lr_mult: 1
    decay_mult: 1
  }
  param {
    lr_mult: 2
    decay_mult: 0
  }
  convolution_param {
    num_output: 384
    pad: 1
    kernel_size: 3
    group: 2
  }
}
layer {
  name: "relu4"
  type: "ReLU"
  bottom: "conv4"
  top: "conv4"
}
layer {
  name: "conv5"
  type: "Convolution"
  bottom: "conv4"
  top: "conv5"
  param {
    lr_mult: 1
    decay_mult: 1
  }
  param {
    lr_mult: 2
    decay_mult: 0
  }
  convolution_param {
    num_output: 256
    pad: 1
    kernel_size: 3
    group: 2
  }
}
layer {
  name: "relu5"
  type: "ReLU"
  bottom: "conv5"
  top: "conv5"
}
layer {
  name: "roi_pool5"
  type: "ROIPooling"
  bottom: "conv5"
  bottom: "rois"
  top: "pool5"
  roi_pooling_param {
    pooled_h: 6
    pooled_w: 6
    spatial_scale: 0.0625
  }
}
layer {
  name: "fc6"
  type: "InnerProduct"
  bottom: "pool5"
  top: "fc6"
  param {
    lr_mult: 1
    decay_mult: 1
  }
  param {
    lr_mult: 2
    decay_mult: 0
  }
  inner_product_param {
    num_output: 4096
  }
}
layer {
  name: "relu6"
  type: "ReLU"
  bottom: "fc6"
  top: "fc6"
}
layer {
  name: "drop6"
  type: "Dropout"
  bottom: "fc6"
  top: "fc6"
  dropout_param {
    dropout_ratio: 0.5
  }
}
layer {
  name: "fc7"
  type: "InnerProduct"
  bottom: "fc6"
  top: "fc7"
  param {
    lr_mult: 1
    decay_mult: 1
  }
  param {
    lr_mult: 2
    decay_mult: 0
  }
  inner_product_param {
    num_output: 4096
  }
}
layer {
  name: "relu7"
  type: "ReLU"
  bottom: "fc7"
  top: "fc7"
}
layer {
  name: "drop7"
  type: "Dropout"
  bottom: "fc7"
  top: "fc7"
  dropout_param {
    dropout_ratio: 0.5
  }
}
layer {
  name: "cls_score"
  type: "InnerProduct"
  bottom: "fc7"
  top: "cls_score"
  param {
    lr_mult: 1
    decay_mult: 1
  }
  param {
    lr_mult: 2
    decay_mult: 0
  }
  inner_product_param {
    num_output: 21
    weight_filler {
      type: "gaussian"
      std: 0.01
    }
    bias_filler {
      type: "constant"
      value: 0
    }
  }
}
layer {
  name: "bbox_pred"
  type: "InnerProduct"
  bottom: "fc7"
  top: "bbox_pred"
  param {
    lr_mult: 1
    decay_mult: 1
  }
  param {
    lr_mult: 2
    decay_mult: 0
  }
  inner_product_param {
    num_output: 84
    weight_filler {
      type: "gaussian"
      std: 0.001
    }
    bias_filler {
      type: "constant"
      value: 0
    }
  }
}
layer {
  name: "loss_cls"
  type: "SoftmaxWithLoss"
  bottom: "cls_score"
  bottom: "labels"
  top: "loss_cls"
  loss_weight: 1
}
layer {
  name: "loss_bbox"
  type: "SmoothL1Loss"
  bottom: "bbox_pred"
  bottom: "bbox_targets"
  bottom: "bbox_loss_weights"
  top: "loss_bbox"
  loss_weight: 1
}
I0123 17:26:19.042477 106129 layer_factory.hpp:77] Creating layer data
I0123 17:26:19.042536 106129 net.cpp:100] Creating Layer data
I0123 17:26:19.042551 106129 net.cpp:408] data -> data
I0123 17:26:19.042584 106129 net.cpp:408] data -> rois
I0123 17:26:19.042599 106129 net.cpp:408] data -> labels
I0123 17:26:19.042610 106129 net.cpp:408] data -> bbox_targets
I0123 17:26:19.042620 106129 net.cpp:408] data -> bbox_loss_weights

I0123 17:26:19.057612 106129 roi_data_extractor.cpp:131] Parse xml files
I0123 17:26:20.666643 106129 roi_data_extractor.cpp:176] Parse object proposals
I0123 17:26:22.996028 106129 roi_data_extractor.cpp:202] Compute overlaps
I0123 17:26:28.790091 106129 roi_data_extractor.cpp:254] Appending horizontally-flipped training examples
I0123 17:26:41.081939 106129 roi_data_extractor.cpp:276] Compute regression target
I0123 17:26:42.928004 106129 roi_data_extractor.cpp:344] Compute mean and stdev
I0123 17:26:43.347865 106129 roi_data_extractor.cpp:427] Number of training examples: 10022
I0123 17:26:50.169591 106129 net.cpp:150] Setting up data
I0123 17:26:50.169693 106129 net.cpp:157] Top shape: 2 3 375 500 (1125000)
I0123 17:26:50.169703 106129 net.cpp:157] Top shape: 128 5 1 1 (640)
I0123 17:26:50.169709 106129 net.cpp:157] Top shape: 128 1 1 1 (128)
I0123 17:26:50.169715 106129 net.cpp:157] Top shape: 128 84 1 1 (10752)
I0123 17:26:50.169720 106129 net.cpp:157] Top shape: 128 84 1 1 (10752)
I0123 17:26:50.169725 106129 net.cpp:165] Memory required for data: 4589088
I0123 17:26:50.169736 106129 layer_factory.hpp:77] Creating layer conv1
I0123 17:26:50.169812 106129 net.cpp:100] Creating Layer conv1
I0123 17:26:50.169821 106129 net.cpp:434] conv1 <- data
I0123 17:26:50.169839 106129 net.cpp:408] conv1 -> conv1
I0123 17:26:50.170722 106129 net.cpp:150] Setting up conv1
I0123 17:26:50.170735 106129 net.cpp:157] Top shape: 2 96 94 125 (2256000)
I0123 17:26:50.170753 106129 net.cpp:165] Memory required for data: 13613088
I0123 17:26:50.170784 106129 layer_factory.hpp:77] Creating layer relu1
I0123 17:26:50.170809 106129 net.cpp:100] Creating Layer relu1
I0123 17:26:50.170814 106129 net.cpp:434] relu1 <- conv1
I0123 17:26:50.170821 106129 net.cpp:395] relu1 -> conv1 (in-place)
I0123 17:26:50.170832 106129 net.cpp:150] Setting up relu1
I0123 17:26:50.170850 106129 net.cpp:157] Top shape: 2 96 94 125 (2256000)
I0123 17:26:50.170855 106129 net.cpp:165] Memory required for data: 22637088
I0123 17:26:50.170858 106129 layer_factory.hpp:77] Creating layer pool1
I0123 17:26:50.170881 106129 net.cpp:100] Creating Layer pool1
I0123 17:26:50.170884 106129 net.cpp:434] pool1 <- conv1
I0123 17:26:50.170891 106129 net.cpp:408] pool1 -> pool1
I0123 17:26:50.171001 106129 net.cpp:150] Setting up pool1
I0123 17:26:50.171021 106129 net.cpp:157] Top shape: 2 96 48 63 (580608)
I0123 17:26:50.171037 106129 net.cpp:165] Memory required for data: 24959520
I0123 17:26:50.171042 106129 layer_factory.hpp:77] Creating layer norm1
I0123 17:26:50.171067 106129 net.cpp:100] Creating Layer norm1
I0123 17:26:50.171072 106129 net.cpp:434] norm1 <- pool1
I0123 17:26:50.171078 106129 net.cpp:408] norm1 -> norm1
I0123 17:26:50.171125 106129 net.cpp:150] Setting up norm1
I0123 17:26:50.171133 106129 net.cpp:157] Top shape: 2 96 48 63 (580608)
I0123 17:26:50.171136 106129 net.cpp:165] Memory required for data: 27281952
I0123 17:26:50.171140 106129 layer_factory.hpp:77] Creating layer conv2
I0123 17:26:50.171151 106129 net.cpp:100] Creating Layer conv2
I0123 17:26:50.171155 106129 net.cpp:434] conv2 <- norm1
I0123 17:26:50.171164 106129 net.cpp:408] conv2 -> conv2
I0123 17:26:50.172722 106129 net.cpp:150] Setting up conv2
I0123 17:26:50.172737 106129 net.cpp:157] Top shape: 2 256 48 63 (1548288)
I0123 17:26:50.172754 106129 net.cpp:165] Memory required for data: 33475104
I0123 17:26:50.172763 106129 layer_factory.hpp:77] Creating layer relu2
I0123 17:26:50.172782 106129 net.cpp:100] Creating Layer relu2
I0123 17:26:50.172786 106129 net.cpp:434] relu2 <- conv2
I0123 17:26:50.172793 106129 net.cpp:395] relu2 -> conv2 (in-place)
I0123 17:26:50.172801 106129 net.cpp:150] Setting up relu2
I0123 17:26:50.172806 106129 net.cpp:157] Top shape: 2 256 48 63 (1548288)
I0123 17:26:50.172808 106129 net.cpp:165] Memory required for data: 39668256
I0123 17:26:50.172812 106129 layer_factory.hpp:77] Creating layer pool2
I0123 17:26:50.172821 106129 net.cpp:100] Creating Layer pool2
I0123 17:26:50.172837 106129 net.cpp:434] pool2 <- conv2
I0123 17:26:50.172842 106129 net.cpp:408] pool2 -> pool2
I0123 17:26:50.172878 106129 net.cpp:150] Setting up pool2
I0123 17:26:50.172886 106129 net.cpp:157] Top shape: 2 256 25 32 (409600)
I0123 17:26:50.172890 106129 net.cpp:165] Memory required for data: 41306656
I0123 17:26:50.172894 106129 layer_factory.hpp:77] Creating layer norm2
I0123 17:26:50.172904 106129 net.cpp:100] Creating Layer norm2
I0123 17:26:50.172919 106129 net.cpp:434] norm2 <- pool2
I0123 17:26:50.172936 106129 net.cpp:408] norm2 -> norm2
I0123 17:26:50.172966 106129 net.cpp:150] Setting up norm2
I0123 17:26:50.172973 106129 net.cpp:157] Top shape: 2 256 25 32 (409600)
I0123 17:26:50.172977 106129 net.cpp:165] Memory required for data: 42945056
I0123 17:26:50.172996 106129 layer_factory.hpp:77] Creating layer conv3
I0123 17:26:50.173017 106129 net.cpp:100] Creating Layer conv3
I0123 17:26:50.173033 106129 net.cpp:434] conv3 <- norm2
I0123 17:26:50.173040 106129 net.cpp:408] conv3 -> conv3
I0123 17:26:50.175129 106129 net.cpp:150] Setting up conv3
I0123 17:26:50.175144 106129 net.cpp:157] Top shape: 2 384 25 32 (614400)
I0123 17:26:50.175160 106129 net.cpp:165] Memory required for data: 45402656
I0123 17:26:50.175170 106129 layer_factory.hpp:77] Creating layer relu3
I0123 17:26:50.175190 106129 net.cpp:100] Creating Layer relu3
I0123 17:26:50.175194 106129 net.cpp:434] relu3 <- conv3
I0123 17:26:50.175201 106129 net.cpp:395] relu3 -> conv3 (in-place)
I0123 17:26:50.175209 106129 net.cpp:150] Setting up relu3
I0123 17:26:50.175213 106129 net.cpp:157] Top shape: 2 384 25 32 (614400)
I0123 17:26:50.175217 106129 net.cpp:165] Memory required for data: 47860256
I0123 17:26:50.175220 106129 layer_factory.hpp:77] Creating layer conv4
I0123 17:26:50.175230 106129 net.cpp:100] Creating Layer conv4
I0123 17:26:50.175246 106129 net.cpp:434] conv4 <- conv3
I0123 17:26:50.175251 106129 net.cpp:408] conv4 -> conv4
I0123 17:26:50.176992 106129 net.cpp:150] Setting up conv4
I0123 17:26:50.177006 106129 net.cpp:157] Top shape: 2 384 25 32 (614400)
I0123 17:26:50.177021 106129 net.cpp:165] Memory required for data: 50317856
I0123 17:26:50.177028 106129 layer_factory.hpp:77] Creating layer relu4
I0123 17:26:50.177036 106129 net.cpp:100] Creating Layer relu4
I0123 17:26:50.177052 106129 net.cpp:434] relu4 <- conv4
I0123 17:26:50.177057 106129 net.cpp:395] relu4 -> conv4 (in-place)
I0123 17:26:50.177064 106129 net.cpp:150] Setting up relu4
I0123 17:26:50.177069 106129 net.cpp:157] Top shape: 2 384 25 32 (614400)
I0123 17:26:50.177073 106129 net.cpp:165] Memory required for data: 52775456
I0123 17:26:50.177078 106129 layer_factory.hpp:77] Creating layer conv5
I0123 17:26:50.177088 106129 net.cpp:100] Creating Layer conv5
I0123 17:26:50.177091 106129 net.cpp:434] conv5 <- conv4
I0123 17:26:50.177110 106129 net.cpp:408] conv5 -> conv5
I0123 17:26:50.178351 106129 net.cpp:150] Setting up conv5
I0123 17:26:50.178365 106129 net.cpp:157] Top shape: 2 256 25 32 (409600)
I0123 17:26:50.178381 106129 net.cpp:165] Memory required for data: 54413856
I0123 17:26:50.178392 106129 layer_factory.hpp:77] Creating layer relu5
I0123 17:26:50.178411 106129 net.cpp:100] Creating Layer relu5
I0123 17:26:50.178414 106129 net.cpp:434] relu5 <- conv5
I0123 17:26:50.178421 106129 net.cpp:395] relu5 -> conv5 (in-place)
I0123 17:26:50.178428 106129 net.cpp:150] Setting up relu5
I0123 17:26:50.178433 106129 net.cpp:157] Top shape: 2 256 25 32 (409600)
I0123 17:26:50.178437 106129 net.cpp:165] Memory required for data: 56052256
I0123 17:26:50.178442 106129 layer_factory.hpp:77] Creating layer roi_pool5
I0123 17:26:50.178465 106129 net.cpp:100] Creating Layer roi_pool5
I0123 17:26:50.178469 106129 net.cpp:434] roi_pool5 <- conv5
I0123 17:26:50.178475 106129 net.cpp:434] roi_pool5 <- rois
I0123 17:26:50.178481 106129 net.cpp:408] roi_pool5 -> pool5
I0123 17:26:50.178493 106129 roi_pooling_layer.cpp:22] Spatial scale: 0.0625
I0123 17:26:50.178577 106129 net.cpp:150] Setting up roi_pool5
I0123 17:26:50.178598 106129 net.cpp:157] Top shape: 128 256 6 6 (1179648)
I0123 17:26:50.178602 106129 net.cpp:165] Memory required for data: 60770848
I0123 17:26:50.178618 106129 layer_factory.hpp:77] Creating layer fc6
I0123 17:26:50.178658 106129 net.cpp:100] Creating Layer fc6
I0123 17:26:50.178663 106129 net.cpp:434] fc6 <- pool5
I0123 17:26:50.178680 106129 net.cpp:408] fc6 -> fc6
I0123 17:26:50.269029 106129 net.cpp:150] Setting up fc6
I0123 17:26:50.269075 106129 net.cpp:157] Top shape: 128 4096 (524288)
I0123 17:26:50.269081 106129 net.cpp:165] Memory required for data: 62868000
I0123 17:26:50.269091 106129 layer_factory.hpp:77] Creating layer relu6
I0123 17:26:50.269117 106129 net.cpp:100] Creating Layer relu6
I0123 17:26:50.269124 106129 net.cpp:434] relu6 <- fc6
I0123 17:26:50.269131 106129 net.cpp:395] relu6 -> fc6 (in-place)
I0123 17:26:50.269160 106129 net.cpp:150] Setting up relu6
I0123 17:26:50.269170 106129 net.cpp:157] Top shape: 128 4096 (524288)
I0123 17:26:50.269176 106129 net.cpp:165] Memory required for data: 64965152
I0123 17:26:50.269181 106129 layer_factory.hpp:77] Creating layer drop6
I0123 17:26:50.269207 106129 net.cpp:100] Creating Layer drop6
I0123 17:26:50.269213 106129 net.cpp:434] drop6 <- fc6
I0123 17:26:50.269219 106129 net.cpp:395] drop6 -> fc6 (in-place)
I0123 17:26:50.269414 106129 net.cpp:150] Setting up drop6
I0123 17:26:50.269428 106129 net.cpp:157] Top shape: 128 4096 (524288)
I0123 17:26:50.269445 106129 net.cpp:165] Memory required for data: 67062304
I0123 17:26:50.269449 106129 layer_factory.hpp:77] Creating layer fc7
I0123 17:26:50.269459 106129 net.cpp:100] Creating Layer fc7
I0123 17:26:50.269475 106129 net.cpp:434] fc7 <- fc6
I0123 17:26:50.269484 106129 net.cpp:408] fc7 -> fc7
I0123 17:26:50.308926 106129 net.cpp:150] Setting up fc7
I0123 17:26:50.308990 106129 net.cpp:157] Top shape: 128 4096 (524288)
I0123 17:26:50.308995 106129 net.cpp:165] Memory required for data: 69159456
I0123 17:26:50.309010 106129 layer_factory.hpp:77] Creating layer relu7
I0123 17:26:50.309034 106129 net.cpp:100] Creating Layer relu7
I0123 17:26:50.309042 106129 net.cpp:434] relu7 <- fc7
I0123 17:26:50.309051 106129 net.cpp:395] relu7 -> fc7 (in-place)
I0123 17:26:50.309064 106129 net.cpp:150] Setting up relu7
I0123 17:26:50.309069 106129 net.cpp:157] Top shape: 128 4096 (524288)
I0123 17:26:50.309073 106129 net.cpp:165] Memory required for data: 71256608
I0123 17:26:50.309077 106129 layer_factory.hpp:77] Creating layer drop7
I0123 17:26:50.309092 106129 net.cpp:100] Creating Layer drop7
I0123 17:26:50.309097 106129 net.cpp:434] drop7 <- fc7
I0123 17:26:50.309103 106129 net.cpp:395] drop7 -> fc7 (in-place)
I0123 17:26:50.309120 106129 net.cpp:150] Setting up drop7
I0123 17:26:50.309139 106129 net.cpp:157] Top shape: 128 4096 (524288)
I0123 17:26:50.309144 106129 net.cpp:165] Memory required for data: 73353760
I0123 17:26:50.309150 106129 layer_factory.hpp:77] Creating layer fc7_drop7_0_split
I0123 17:26:50.309166 106129 net.cpp:100] Creating Layer fc7_drop7_0_split
I0123 17:26:50.309176 106129 net.cpp:434] fc7_drop7_0_split <- fc7
I0123 17:26:50.309182 106129 net.cpp:408] fc7_drop7_0_split -> fc7_drop7_0_split_0
I0123 17:26:50.309191 106129 net.cpp:408] fc7_drop7_0_split -> fc7_drop7_0_split_1
I0123 17:26:50.309250 106129 net.cpp:150] Setting up fc7_drop7_0_split
I0123 17:26:50.309259 106129 net.cpp:157] Top shape: 128 4096 (524288)
I0123 17:26:50.309263 106129 net.cpp:157] Top shape: 128 4096 (524288)
I0123 17:26:50.309267 106129 net.cpp:165] Memory required for data: 77548064
I0123 17:26:50.309273 106129 layer_factory.hpp:77] Creating layer cls_score
I0123 17:26:50.309283 106129 net.cpp:100] Creating Layer cls_score
I0123 17:26:50.309288 106129 net.cpp:434] cls_score <- fc7_drop7_0_split_0
I0123 17:26:50.309296 106129 net.cpp:408] cls_score -> cls_score
I0123 17:26:50.311241 106129 net.cpp:150] Setting up cls_score
I0123 17:26:50.311255 106129 net.cpp:157] Top shape: 128 21 (2688)
I0123 17:26:50.311271 106129 net.cpp:165] Memory required for data: 77558816
I0123 17:26:50.311278 106129 layer_factory.hpp:77] Creating layer bbox_pred
I0123 17:26:50.311300 106129 net.cpp:100] Creating Layer bbox_pred
I0123 17:26:50.311305 106129 net.cpp:434] bbox_pred <- fc7_drop7_0_split_1
I0123 17:26:50.311312 106129 net.cpp:408] bbox_pred -> bbox_pred
I0123 17:26:50.320112 106129 net.cpp:150] Setting up bbox_pred
I0123 17:26:50.320161 106129 net.cpp:157] Top shape: 128 84 (10752)
I0123 17:26:50.320168 106129 net.cpp:165] Memory required for data: 77601824
I0123 17:26:50.320188 106129 layer_factory.hpp:77] Creating layer loss_cls
I0123 17:26:50.320219 106129 net.cpp:100] Creating Layer loss_cls
I0123 17:26:50.320226 106129 net.cpp:434] loss_cls <- cls_score
I0123 17:26:50.320233 106129 net.cpp:434] loss_cls <- labels
I0123 17:26:50.320240 106129 net.cpp:408] loss_cls -> loss_cls
…
