…
snapshot_prefix: "vgg16_fast_rcnn"
device_id: 2
train_state {
  level: 0
  stage: ""
}
average_loss: 100
I0123 17:26:40.736066 106137 solver.cpp:81] Creating training net from train_net file: models/VGG16/train.prototxt
I0123 17:26:40.737215 106137 net.cpp:58] Initializing net from parameters: 
name: "VGG_ILSVRC_16_layers"
state {
  phase: TRAIN
  level: 0
  stage: ""
}
layer {
  name: "data"
  type: "ROIData"
  top: "data"
  top: "rois"
  top: "labels"
  top: "bbox_targets"
  top: "bbox_loss_weights"
  roi_data_param {
    config_file: "cfg/config.cfg"
  }
}
layer {
  name: "conv1_1"
  type: "Convolution"
  bottom: "data"
  top: "conv1_1"
  param {
    lr_mult: 0
    decay_mult: 0
  }
  param {
    lr_mult: 0
    decay_mult: 0
  }
  convolution_param {
    num_output: 64
    pad: 1
    kernel_size: 3
  }
}
layer {
  name: "relu1_1"
  type: "ReLU"
  bottom: "conv1_1"
  top: "conv1_1"
}
layer {
  name: "conv1_2"
  type: "Convolution"
  bottom: "conv1_1"
  top: "conv1_2"
  param {
    lr_mult: 0
    decay_mult: 0
  }
  param {
    lr_mult: 0
    decay_mult: 0
  }
  convolution_param {
    num_output: 64
    pad: 1
    kernel_size: 3
  }
}
layer {
  name: "relu1_2"
  type: "ReLU"
  bottom: "conv1_2"
  top: "conv1_2"
}
layer {
  name: "pool1"
  type: "Pooling"
  bottom: "conv1_2"
  top: "pool1"
  pooling_param {
    pool: MAX
    kernel_size: 2
    stride: 2
  }
}
layer {
  name: "conv2_1"
  type: "Convolution"
  bottom: "pool1"
  top: "conv2_1"
  param {
    lr_mult: 0
    decay_mult: 0
  }
  param {
    lr_mult: 0
    decay_mult: 0
  }
  convolution_param {
    num_output: 128
    pad: 1
    kernel_size: 3
  }
}
layer {
  name: "relu2_1"
  type: "ReLU"
  bottom: "conv2_1"
  top: "conv2_1"
}
layer {
  name: "conv2_2"
  type: "Convolution"
  bottom: "conv2_1"
  top: "conv2_2"
  param {
    lr_mult: 0
    decay_mult: 0
  }
  param {
    lr_mult: 0
    decay_mult: 0
  }
  convolution_param {
    num_output: 128
    pad: 1
    kernel_size: 3
  }
}
layer {
  name: "relu2_2"
  type: "ReLU"
  bottom: "conv2_2"
  top: "conv2_2"
}
layer {
  name: "pool2"
  type: "Pooling"
  bottom: "conv2_2"
  top: "pool2"
  pooling_param {
    pool: MAX
    kernel_size: 2
    stride: 2
  }
}
layer {
  name: "conv3_1"
  type: "Convolution"
  bottom: "pool2"
  top: "conv3_1"
  param {
    lr_mult: 1
    decay_mult: 1
  }
  param {
    lr_mult: 2
    decay_mult: 0
  }
  convolution_param {
    num_output: 256
    pad: 1
    kernel_size: 3
  }
}
layer {
  name: "relu3_1"
  type: "ReLU"
  bottom: "conv3_1"
  top: "conv3_1"
}
layer {
  name: "conv3_2"
  type: "Convolution"
  bottom: "conv3_1"
  top: "conv3_2"
  param {
    lr_mult: 1
    decay_mult: 1
  }
  param {
    lr_mult: 2
    decay_mult: 0
  }
  convolution_param {
    num_output: 256
    pad: 1
    kernel_size: 3
  }
}
layer {
  name: "relu3_2"
  type: "ReLU"
  bottom: "conv3_2"
  top: "conv3_2"
}
layer {
  name: "conv3_3"
  type: "Convolution"
  bottom: "conv3_2"
  top: "conv3_3"
  param {
    lr_mult: 1
    decay_mult: 1
  }
  param {
    lr_mult: 2
    decay_mult: 0
  }
  convolution_param {
    num_output: 256
    pad: 1
    kernel_size: 3
  }
}
layer {
  name: "relu3_3"
  type: "ReLU"
  bottom: "conv3_3"
  top: "conv3_3"
}
layer {
  name: "pool3"
  type: "Pooling"
  bottom: "conv3_3"
  top: "pool3"
  pooling_param {
    pool: MAX
    kernel_size: 2
    stride: 2
  }
}
layer {
  name: "conv4_1"
  type: "Convolution"
  bottom: "pool3"
  top: "conv4_1"
  param {
    lr_mult: 1
    decay_mult: 1
  }
  param {
    lr_mult: 2
    decay_mult: 0
  }
  convolution_param {
    num_output: 512
    pad: 1
    kernel_size: 3
  }
}
layer {
  name: "relu4_1"
  type: "ReLU"
  bottom: "conv4_1"
  top: "conv4_1"
}
layer {
  name: "conv4_2"
  type: "Convolution"
  bottom: "conv4_1"
  top: "conv4_2"
  param {
    lr_mult: 1
    decay_mult: 1
  }
  param {
    lr_mult: 2
    decay_mult: 0
  }
  convolution_param {
    num_output: 512
    pad: 1
    kernel_size: 3
  }
}
layer {
  name: "relu4_2"
  type: "ReLU"
  bottom: "conv4_2"
  top: "conv4_2"
}
layer {
  name: "conv4_3"
  type: "Convolution"
  bottom: "conv4_2"
  top: "conv4_3"
  param {
    lr_mult: 1
    decay_mult: 1
  }
  param {
    lr_mult: 2
    decay_mult: 0
  }
  convolution_param {
    num_output: 512
    pad: 1
    kernel_size: 3
  }
}
layer {
  name: "relu4_3"
  type: "ReLU"
  bottom: "conv4_3"
  top: "conv4_3"
}
layer {
  name: "pool4"
  type: "Pooling"
  bottom: "conv4_3"
  top: "pool4"
  pooling_param {
    pool: MAX
    kernel_size: 2
    stride: 2
  }
}
layer {
  name: "conv5_1"
  type: "Convolution"
  bottom: "pool4"
  top: "conv5_1"
  param {
    lr_mult: 1
    decay_mult: 1
  }
  param {
    lr_mult: 2
    decay_mult: 0
  }
  convolution_param {
    num_output: 512
    pad: 1
    kernel_size: 3
  }
}
layer {
  name: "relu5_1"
  type: "ReLU"
  bottom: "conv5_1"
  top: "conv5_1"
}
layer {
  name: "conv5_2"
  type: "Convolution"
  bottom: "conv5_1"
  top: "conv5_2"
  param {
    lr_mult: 1
    decay_mult: 1
  }
  param {
    lr_mult: 2
    decay_mult: 0
  }
  convolution_param {
    num_output: 512
    pad: 1
    kernel_size: 3
  }
}
layer {
  name: "relu5_2"
  type: "ReLU"
  bottom: "conv5_2"
  top: "conv5_2"
}
layer {
  name: "conv5_3"
  type: "Convolution"
  bottom: "conv5_2"
  top: "conv5_3"
  param {
    lr_mult: 1
    decay_mult: 1
  }
  param {
    lr_mult: 2
    decay_mult: 0
  }
  convolution_param {
    num_output: 512
    pad: 1
    kernel_size: 3
  }
}
layer {
  name: "relu5_3"
  type: "ReLU"
  bottom: "conv5_3"
  top: "conv5_3"
}
layer {
  name: "roi_pool5"
  type: "ROIPooling"
  bottom: "conv5_3"
  bottom: "rois"
  top: "pool5"
  roi_pooling_param {
    pooled_h: 7
    pooled_w: 7
    spatial_scale: 0.0625
  }
}
layer {
  name: "fc6"
  type: "InnerProduct"
  bottom: "pool5"
  top: "fc6"
  param {
    lr_mult: 1
    decay_mult: 1
  }
  param {
    lr_mult: 2
    decay_mult: 0
  }
  inner_product_param {
    num_output: 4096
  }
}
layer {
  name: "relu6"
  type: "ReLU"
  bottom: "fc6"
  top: "fc6"
}
layer {
  name: "drop6"
  type: "Dropout"
  bottom: "fc6"
  top: "fc6"
  dropout_param {
    dropout_ratio: 0.5
  }
}
layer {
  name: "fc7"
  type: "InnerProduct"
  bottom: "fc6"
  top: "fc7"
  param {
    lr_mult: 1
    decay_mult: 1
  }
  param {
    lr_mult: 2
    decay_mult: 0
  }
  inner_product_param {
    num_output: 4096
  }
}
layer {
  name: "relu7"
  type: "ReLU"
  bottom: "fc7"
  top: "fc7"
}
layer {
  name: "drop7"
  type: "Dropout"
  bottom: "fc7"
  top: "fc7"
  dropout_param {
    dropout_ratio: 0.5
  }
}
layer {
  name: "cls_score"
  type: "InnerProduct"
  bottom: "fc7"
  top: "cls_score"
  param {
    lr_mult: 1
    decay_mult: 1
  }
  param {
    lr_mult: 2
    decay_mult: 0
  }
  inner_product_param {
    num_output: 21
    weight_filler {
      type: "gaussian"
      std: 0.01
    }
    bias_filler {
      type: "constant"
      value: 0
    }
  }
}
layer {
  name: "bbox_pred"
  type: "InnerProduct"
  bottom: "fc7"
  top: "bbox_pred"
  param {
    lr_mult: 1
    decay_mult: 1
  }
  param {
    lr_mult: 2
    decay_mult: 0
  }
  inner_product_param {
    num_output: 84
    weight_filler {
      type: "gaussian"
      std: 0.001
    }
    bias_filler {
      type: "constant"
      value: 0
    }
  }
}
layer {
  name: "loss_cls"
  type: "SoftmaxWithLoss"
  bottom: "cls_score"
  bottom: "labels"
  top: "loss_cls"
  loss_weight: 1
}
layer {
  name: "loss_bbox"
  type: "SmoothL1Loss"
  bottom: "bbox_pred"
  bottom: "bbox_targets"
  bottom: "bbox_loss_weights"
  top: "loss_bbox"
  loss_weight: 1
}
I0123 17:26:40.737463 106137 layer_factory.hpp:77] Creating layer data
I0123 17:26:40.737511 106137 net.cpp:100] Creating Layer data
I0123 17:26:40.737534 106137 net.cpp:408] data -> data
I0123 17:26:40.737567 106137 net.cpp:408] data -> rois
I0123 17:26:40.737578 106137 net.cpp:408] data -> labels
I0123 17:26:40.737588 106137 net.cpp:408] data -> bbox_targets
I0123 17:26:40.737617 106137 net.cpp:408] data -> bbox_loss_weights

I0123 17:26:40.752517 106137 roi_data_extractor.cpp:131] Parse xml files
I0123 17:26:42.384207 106137 roi_data_extractor.cpp:176] Parse object proposals
I0123 17:26:44.795646 106137 roi_data_extractor.cpp:202] Compute overlaps
I0123 17:26:50.841200 106137 roi_data_extractor.cpp:254] Appending horizontally-flipped training examples
I0123 17:27:03.202487 106137 roi_data_extractor.cpp:276] Compute regression target
I0123 17:27:05.082494 106137 roi_data_extractor.cpp:344] Compute mean and stdev
I0123 17:27:05.280830 106137 roi_data_extractor.cpp:427] Number of training examples: 10022
I0123 17:27:12.143175 106137 net.cpp:150] Setting up data
I0123 17:27:12.147584 106137 net.cpp:157] Top shape: 2 3 375 500 (1125000)
I0123 17:27:12.147603 106137 net.cpp:157] Top shape: 128 5 1 1 (640)
I0123 17:27:12.147624 106137 net.cpp:157] Top shape: 128 1 1 1 (128)
I0123 17:27:12.147629 106137 net.cpp:157] Top shape: 128 84 1 1 (10752)
I0123 17:27:12.147637 106137 net.cpp:157] Top shape: 128 84 1 1 (10752)
I0123 17:27:12.147642 106137 net.cpp:165] Memory required for data: 4589088
I0123 17:27:12.147676 106137 layer_factory.hpp:77] Creating layer conv1_1
I0123 17:27:12.147753 106137 net.cpp:100] Creating Layer conv1_1
I0123 17:27:12.147764 106137 net.cpp:434] conv1_1 <- data
I0123 17:27:12.147800 106137 net.cpp:408] conv1_1 -> conv1_1
I0123 17:27:12.149413 106137 net.cpp:150] Setting up conv1_1
I0123 17:27:12.149430 106137 net.cpp:157] Top shape: 2 64 375 500 (24000000)
I0123 17:27:12.149448 106137 net.cpp:165] Memory required for data: 100589088
I0123 17:27:12.149478 106137 layer_factory.hpp:77] Creating layer relu1_1
I0123 17:27:12.149499 106137 net.cpp:100] Creating Layer relu1_1
I0123 17:27:12.149507 106137 net.cpp:434] relu1_1 <- conv1_1
I0123 17:27:12.149513 106137 net.cpp:395] relu1_1 -> conv1_1 (in-place)
I0123 17:27:12.149540 106137 net.cpp:150] Setting up relu1_1
I0123 17:27:12.149547 106137 net.cpp:157] Top shape: 2 64 375 500 (24000000)
I0123 17:27:12.149552 106137 net.cpp:165] Memory required for data: 196589088
I0123 17:27:12.149556 106137 layer_factory.hpp:77] Creating layer conv1_2
I0123 17:27:12.149569 106137 net.cpp:100] Creating Layer conv1_2
I0123 17:27:12.149575 106137 net.cpp:434] conv1_2 <- conv1_1
I0123 17:27:12.149596 106137 net.cpp:408] conv1_2 -> conv1_2
I0123 17:27:12.151015 106137 net.cpp:150] Setting up conv1_2
I0123 17:27:12.151032 106137 net.cpp:157] Top shape: 2 64 375 500 (24000000)
I0123 17:27:12.151051 106137 net.cpp:165] Memory required for data: 292589088
I0123 17:27:12.151062 106137 layer_factory.hpp:77] Creating layer relu1_2
I0123 17:27:12.151072 106137 net.cpp:100] Creating Layer relu1_2
I0123 17:27:12.151077 106137 net.cpp:434] relu1_2 <- conv1_2
I0123 17:27:12.151096 106137 net.cpp:395] relu1_2 -> conv1_2 (in-place)
I0123 17:27:12.151118 106137 net.cpp:150] Setting up relu1_2
I0123 17:27:12.151125 106137 net.cpp:157] Top shape: 2 64 375 500 (24000000)
I0123 17:27:12.151129 106137 net.cpp:165] Memory required for data: 388589088
I0123 17:27:12.151145 106137 layer_factory.hpp:77] Creating layer pool1
I0123 17:27:12.151167 106137 net.cpp:100] Creating Layer pool1
I0123 17:27:12.151175 106137 net.cpp:434] pool1 <- conv1_2
I0123 17:27:12.151182 106137 net.cpp:408] pool1 -> pool1
I0123 17:27:12.151271 106137 net.cpp:150] Setting up pool1
I0123 17:27:12.151283 106137 net.cpp:157] Top shape: 2 64 188 250 (6016000)
I0123 17:27:12.151288 106137 net.cpp:165] Memory required for data: 412653088
I0123 17:27:12.151294 106137 layer_factory.hpp:77] Creating layer conv2_1
I0123 17:27:12.151332 106137 net.cpp:100] Creating Layer conv2_1
I0123 17:27:12.151355 106137 net.cpp:434] conv2_1 <- pool1
I0123 17:27:12.151378 106137 net.cpp:408] conv2_1 -> conv2_1
I0123 17:27:12.151753 106137 net.cpp:150] Setting up conv2_1
I0123 17:27:12.151768 106137 net.cpp:157] Top shape: 2 128 188 250 (12032000)
I0123 17:27:12.151787 106137 net.cpp:165] Memory required for data: 460781088
I0123 17:27:12.151796 106137 layer_factory.hpp:77] Creating layer relu2_1
I0123 17:27:12.151805 106137 net.cpp:100] Creating Layer relu2_1
I0123 17:27:12.151810 106137 net.cpp:434] relu2_1 <- conv2_1
I0123 17:27:12.151816 106137 net.cpp:395] relu2_1 -> conv2_1 (in-place)
I0123 17:27:12.151830 106137 net.cpp:150] Setting up relu2_1
I0123 17:27:12.151850 106137 net.cpp:157] Top shape: 2 128 188 250 (12032000)
I0123 17:27:12.151854 106137 net.cpp:165] Memory required for data: 508909088
I0123 17:27:12.151859 106137 layer_factory.hpp:77] Creating layer conv2_2
I0123 17:27:12.151872 106137 net.cpp:100] Creating Layer conv2_2
I0123 17:27:12.151878 106137 net.cpp:434] conv2_2 <- conv2_1
I0123 17:27:12.151885 106137 net.cpp:408] conv2_2 -> conv2_2
I0123 17:27:12.152803 106137 net.cpp:150] Setting up conv2_2
I0123 17:27:12.152856 106137 net.cpp:157] Top shape: 2 128 188 250 (12032000)
I0123 17:27:12.152863 106137 net.cpp:165] Memory required for data: 557037088
I0123 17:27:12.152871 106137 layer_factory.hpp:77] Creating layer relu2_2
I0123 17:27:12.152879 106137 net.cpp:100] Creating Layer relu2_2
I0123 17:27:12.152886 106137 net.cpp:434] relu2_2 <- conv2_2
I0123 17:27:12.152905 106137 net.cpp:395] relu2_2 -> conv2_2 (in-place)
I0123 17:27:12.152915 106137 net.cpp:150] Setting up relu2_2
I0123 17:27:12.152920 106137 net.cpp:157] Top shape: 2 128 188 250 (12032000)
I0123 17:27:12.152925 106137 net.cpp:165] Memory required for data: 605165088
I0123 17:27:12.152930 106137 layer_factory.hpp:77] Creating layer pool2
I0123 17:27:12.152940 106137 net.cpp:100] Creating Layer pool2
I0123 17:27:12.152958 106137 net.cpp:434] pool2 <- conv2_2
I0123 17:27:12.152977 106137 net.cpp:408] pool2 -> pool2
I0123 17:27:12.153029 106137 net.cpp:150] Setting up pool2
I0123 17:27:12.153038 106137 net.cpp:157] Top shape: 2 128 94 125 (3008000)
I0123 17:27:12.153043 106137 net.cpp:165] Memory required for data: 617197088
I0123 17:27:12.153048 106137 layer_factory.hpp:77] Creating layer conv3_1
I0123 17:27:12.153057 106137 net.cpp:100] Creating Layer conv3_1
I0123 17:27:12.153064 106137 net.cpp:434] conv3_1 <- pool2
I0123 17:27:12.153070 106137 net.cpp:408] conv3_1 -> conv3_1
I0123 17:27:12.154062 106137 net.cpp:150] Setting up conv3_1
I0123 17:27:12.154078 106137 net.cpp:157] Top shape: 2 256 94 125 (6016000)
I0123 17:27:12.154095 106137 net.cpp:165] Memory required for data: 641261088
I0123 17:27:12.154108 106137 layer_factory.hpp:77] Creating layer relu3_1
I0123 17:27:12.154115 106137 net.cpp:100] Creating Layer relu3_1
I0123 17:27:12.154122 106137 net.cpp:434] relu3_1 <- conv3_1
I0123 17:27:12.154144 106137 net.cpp:395] relu3_1 -> conv3_1 (in-place)
I0123 17:27:12.154155 106137 net.cpp:150] Setting up relu3_1
I0123 17:27:12.154161 106137 net.cpp:157] Top shape: 2 256 94 125 (6016000)
I0123 17:27:12.154165 106137 net.cpp:165] Memory required for data: 665325088
I0123 17:27:12.154170 106137 layer_factory.hpp:77] Creating layer conv3_2
I0123 17:27:12.154197 106137 net.cpp:100] Creating Layer conv3_2
I0123 17:27:12.154203 106137 net.cpp:434] conv3_2 <- conv3_1
I0123 17:27:12.154211 106137 net.cpp:408] conv3_2 -> conv3_2
I0123 17:27:12.155655 106137 net.cpp:150] Setting up conv3_2
I0123 17:27:12.155671 106137 net.cpp:157] Top shape: 2 256 94 125 (6016000)
I0123 17:27:12.155689 106137 net.cpp:165] Memory required for data: 689389088
I0123 17:27:12.155802 106137 layer_factory.hpp:77] Creating layer relu3_2
I0123 17:27:12.155835 106137 net.cpp:100] Creating Layer relu3_2
I0123 17:27:12.155843 106137 net.cpp:434] relu3_2 <- conv3_2
I0123 17:27:12.155849 106137 net.cpp:395] relu3_2 -> conv3_2 (in-place)
I0123 17:27:12.155858 106137 net.cpp:150] Setting up relu3_2
I0123 17:27:12.155866 106137 net.cpp:157] Top shape: 2 256 94 125 (6016000)
I0123 17:27:12.155884 106137 net.cpp:165] Memory required for data: 713453088
I0123 17:27:12.155900 106137 layer_factory.hpp:77] Creating layer conv3_3
I0123 17:27:12.155911 106137 net.cpp:100] Creating Layer conv3_3
I0123 17:27:12.155930 106137 net.cpp:434] conv3_3 <- conv3_2
I0123 17:27:12.155938 106137 net.cpp:408] conv3_3 -> conv3_3
I0123 17:27:12.157521 106137 net.cpp:150] Setting up conv3_3
I0123 17:27:12.157537 106137 net.cpp:157] Top shape: 2 256 94 125 (6016000)
I0123 17:27:12.157542 106137 net.cpp:165] Memory required for data: 737517088
I0123 17:27:12.157551 106137 layer_factory.hpp:77] Creating layer relu3_3
I0123 17:27:12.157575 106137 net.cpp:100] Creating Layer relu3_3
I0123 17:27:12.157582 106137 net.cpp:434] relu3_3 <- conv3_3
I0123 17:27:12.157589 106137 net.cpp:395] relu3_3 -> conv3_3 (in-place)
I0123 17:27:12.157598 106137 net.cpp:150] Setting up relu3_3
I0123 17:27:12.157604 106137 net.cpp:157] Top shape: 2 256 94 125 (6016000)
I0123 17:27:12.157609 106137 net.cpp:165] Memory required for data: 761581088
I0123 17:27:12.157613 106137 layer_factory.hpp:77] Creating layer pool3
I0123 17:27:12.158017 106137 net.cpp:100] Creating Layer pool3
I0123 17:27:12.158048 106137 net.cpp:434] pool3 <- conv3_3
I0123 17:27:12.158064 106137 net.cpp:408] pool3 -> pool3
I0123 17:27:12.158130 106137 net.cpp:150] Setting up pool3
I0123 17:27:12.158148 106137 net.cpp:157] Top shape: 2 256 47 63 (1516032)
I0123 17:27:12.158160 106137 net.cpp:165] Memory required for data: 767645216
I0123 17:27:12.158696 106137 layer_factory.hpp:77] Creating layer conv4_1
I0123 17:27:12.158722 106137 net.cpp:100] Creating Layer conv4_1
I0123 17:27:12.158730 106137 net.cpp:434] conv4_1 <- pool3
I0123 17:27:12.158740 106137 net.cpp:408] conv4_1 -> conv4_1
I0123 17:27:12.163642 106137 net.cpp:150] Setting up conv4_1
I0123 17:27:12.163707 106137 net.cpp:157] Top shape: 2 512 47 63 (3032064)
I0123 17:27:12.163713 106137 net.cpp:165] Memory required for data: 779773472
I0123 17:27:12.163724 106137 layer_factory.hpp:77] Creating layer relu4_1
I0123 17:27:12.163749 106137 net.cpp:100] Creating Layer relu4_1
I0123 17:27:12.163758 106137 net.cpp:434] relu4_1 <- conv4_1
I0123 17:27:12.163767 106137 net.cpp:395] relu4_1 -> conv4_1 (in-place)
I0123 17:27:12.163779 106137 net.cpp:150] Setting up relu4_1
I0123 17:27:12.163785 106137 net.cpp:157] Top shape: 2 512 47 63 (3032064)
I0123 17:27:12.163789 106137 net.cpp:165] Memory required for data: 791901728
I0123 17:27:12.163794 106137 layer_factory.hpp:77] Creating layer conv4_2
I0123 17:27:12.164167 106137 net.cpp:100] Creating Layer conv4_2
I0123 17:27:12.164182 106137 net.cpp:434] conv4_2 <- conv4_1
I0123 17:27:12.164192 106137 net.cpp:408] conv4_2 -> conv4_2
I0123 17:27:12.170236 106137 net.cpp:150] Setting up conv4_2
I0123 17:27:12.170284 106137 net.cpp:157] Top shape: 2 512 47 63 (3032064)
I0123 17:27:12.170290 106137 net.cpp:165] Memory required for data: 804029984
I0123 17:27:12.170331 106137 layer_factory.hpp:77] Creating layer relu4_2
I0123 17:27:12.170364 106137 net.cpp:100] Creating Layer relu4_2
I0123 17:27:12.170372 106137 net.cpp:434] relu4_2 <- conv4_2
I0123 17:27:12.170379 106137 net.cpp:395] relu4_2 -> conv4_2 (in-place)
I0123 17:27:12.170395 106137 net.cpp:150] Setting up relu4_2
I0123 17:27:12.170403 106137 net.cpp:157] Top shape: 2 512 47 63 (3032064)
I0123 17:27:12.170406 106137 net.cpp:165] Memory required for data: 816158240
I0123 17:27:12.170604 106137 layer_factory.hpp:77] Creating layer conv4_3
I0123 17:27:12.170644 106137 net.cpp:100] Creating Layer conv4_3
I0123 17:27:12.170652 106137 net.cpp:434] conv4_3 <- conv4_2
I0123 17:27:12.170661 106137 net.cpp:408] conv4_3 -> conv4_3
I0123 17:27:12.176367 106137 net.cpp:150] Setting up conv4_3
I0123 17:27:12.176410 106137 net.cpp:157] Top shape: 2 512 47 63 (3032064)
I0123 17:27:12.176416 106137 net.cpp:165] Memory required for data: 828286496
I0123 17:27:12.176429 106137 layer_factory.hpp:77] Creating layer relu4_3
I0123 17:27:12.176441 106137 net.cpp:100] Creating Layer relu4_3
I0123 17:27:12.176448 106137 net.cpp:434] relu4_3 <- conv4_3
I0123 17:27:12.176456 106137 net.cpp:395] relu4_3 -> conv4_3 (in-place)
I0123 17:27:12.176468 106137 net.cpp:150] Setting up relu4_3
I0123 17:27:12.176475 106137 net.cpp:157] Top shape: 2 512 47 63 (3032064)
I0123 17:27:12.176478 106137 net.cpp:165] Memory required for data: 840414752
I0123 17:27:12.176482 106137 layer_factory.hpp:77] Creating layer pool4
I0123 17:27:12.176494 106137 net.cpp:100] Creating Layer pool4
I0123 17:27:12.176499 106137 net.cpp:434] pool4 <- conv4_3
I0123 17:27:12.176506 106137 net.cpp:408] pool4 -> pool4
I0123 17:27:12.176542 106137 net.cpp:150] Setting up pool4
I0123 17:27:12.176553 106137 net.cpp:157] Top shape: 2 512 24 32 (786432)
I0123 17:27:12.176558 106137 net.cpp:165] Memory required for data: 843560480
I0123 17:27:12.176563 106137 layer_factory.hpp:77] Creating layer conv5_1
I0123 17:27:12.176574 106137 net.cpp:100] Creating Layer conv5_1
I0123 17:27:12.176578 106137 net.cpp:434] conv5_1 <- pool4
I0123 17:27:12.176586 106137 net.cpp:408] conv5_1 -> conv5_1
I0123 17:27:12.181486 106137 net.cpp:150] Setting up conv5_1
I0123 17:27:12.181509 106137 net.cpp:157] Top shape: 2 512 24 32 (786432)
I0123 17:27:12.181529 106137 net.cpp:165] Memory required for data: 846706208
I0123 17:27:12.181552 106137 layer_factory.hpp:77] Creating layer relu5_1
I0123 17:27:12.181561 106137 net.cpp:100] Creating Layer relu5_1
I0123 17:27:12.181566 106137 net.cpp:434] relu5_1 <- conv5_1
I0123 17:27:12.181573 106137 net.cpp:395] relu5_1 -> conv5_1 (in-place)
I0123 17:27:12.181581 106137 net.cpp:150] Setting up relu5_1
I0123 17:27:12.181598 106137 net.cpp:157] Top shape: 2 512 24 32 (786432)
I0123 17:27:12.181622 106137 net.cpp:165] Memory required for data: 849851936
I0123 17:27:12.181625 106137 layer_factory.hpp:77] Creating layer conv5_2
I0123 17:27:12.181658 106137 net.cpp:100] Creating Layer conv5_2
I0123 17:27:12.181711 106137 net.cpp:434] conv5_2 <- conv5_1
I0123 17:27:12.181730 106137 net.cpp:408] conv5_2 -> conv5_2
I0123 17:27:12.186985 106137 net.cpp:150] Setting up conv5_2
I0123 17:27:12.187033 106137 net.cpp:157] Top shape: 2 512 24 32 (786432)
I0123 17:27:12.187041 106137 net.cpp:165] Memory required for data: 852997664
I0123 17:27:12.187049 106137 layer_factory.hpp:77] Creating layer relu5_2
I0123 17:27:12.187060 106137 net.cpp:100] Creating Layer relu5_2
I0123 17:27:12.187067 106137 net.cpp:434] relu5_2 <- conv5_2
I0123 17:27:12.187072 106137 net.cpp:395] relu5_2 -> conv5_2 (in-place)
I0123 17:27:12.187083 106137 net.cpp:150] Setting up relu5_2
I0123 17:27:12.187088 106137 net.cpp:157] Top shape: 2 512 24 32 (786432)
I0123 17:27:12.187093 106137 net.cpp:165] Memory required for data: 856143392
I0123 17:27:12.187096 106137 layer_factory.hpp:77] Creating layer conv5_3
I0123 17:27:12.187110 106137 net.cpp:100] Creating Layer conv5_3
I0123 17:27:12.187115 106137 net.cpp:434] conv5_3 <- conv5_2
I0123 17:27:12.187121 106137 net.cpp:408] conv5_3 -> conv5_3
I0123 17:27:12.192065 106137 net.cpp:150] Setting up conv5_3
I0123 17:27:12.192086 106137 net.cpp:157] Top shape: 2 512 24 32 (786432)
I0123 17:27:12.192090 106137 net.cpp:165] Memory required for data: 859289120
I0123 17:27:12.192098 106137 layer_factory.hpp:77] Creating layer relu5_3
I0123 17:27:12.192107 106137 net.cpp:100] Creating Layer relu5_3
I0123 17:27:12.192112 106137 net.cpp:434] relu5_3 <- conv5_3
I0123 17:27:12.192118 106137 net.cpp:395] relu5_3 -> conv5_3 (in-place)
I0123 17:27:12.192126 106137 net.cpp:150] Setting up relu5_3
I0123 17:27:12.192131 106137 net.cpp:157] Top shape: 2 512 24 32 (786432)
I0123 17:27:12.192136 106137 net.cpp:165] Memory required for data: 862434848
I0123 17:27:12.192139 106137 layer_factory.hpp:77] Creating layer roi_pool5
I0123 17:27:12.192157 106137 net.cpp:100] Creating Layer roi_pool5
I0123 17:27:12.192162 106137 net.cpp:434] roi_pool5 <- conv5_3
I0123 17:27:12.192167 106137 net.cpp:434] roi_pool5 <- rois
I0123 17:27:12.192173 106137 net.cpp:408] roi_pool5 -> pool5
I0123 17:27:12.192185 106137 roi_pooling_layer.cpp:22] Spatial scale: 0.0625
I0123 17:27:12.192260 106137 net.cpp:150] Setting up roi_pool5
I0123 17:27:12.192270 106137 net.cpp:157] Top shape: 128 512 7 7 (3211264)
I0123 17:27:12.192276 106137 net.cpp:165] Memory required for data: 875279904
I0123 17:27:12.192281 106137 layer_factory.hpp:77] Creating layer fc6
I0123 17:27:12.192314 106137 net.cpp:100] Creating Layer fc6
I0123 17:27:12.192324 106137 net.cpp:434] fc6 <- pool5
I0123 17:27:12.192332 106137 net.cpp:408] fc6 -> fc6
I0123 17:27:12.420673 106137 net.cpp:150] Setting up fc6
I0123 17:27:12.420720 106137 net.cpp:157] Top shape: 128 4096 (524288)
I0123 17:27:12.420725 106137 net.cpp:165] Memory required for data: 877377056
I0123 17:27:12.420737 106137 layer_factory.hpp:77] Creating layer relu6
I0123 17:27:12.420749 106137 net.cpp:100] Creating Layer relu6
I0123 17:27:12.420756 106137 net.cpp:434] relu6 <- fc6
I0123 17:27:12.420766 106137 net.cpp:395] relu6 -> fc6 (in-place)
I0123 17:27:12.420792 106137 net.cpp:150] Setting up relu6
I0123 17:27:12.420799 106137 net.cpp:157] Top shape: 128 4096 (524288)
I0123 17:27:12.420802 106137 net.cpp:165] Memory required for data: 879474208
I0123 17:27:12.420807 106137 layer_factory.hpp:77] Creating layer drop6
I0123 17:27:12.420864 106137 net.cpp:100] Creating Layer drop6
I0123 17:27:12.420871 106137 net.cpp:434] drop6 <- fc6
I0123 17:27:12.420878 106137 net.cpp:395] drop6 -> fc6 (in-place)
I0123 17:27:12.420922 106137 net.cpp:150] Setting up drop6
I0123 17:27:12.420943 106137 net.cpp:157] Top shape: 128 4096 (524288)
I0123 17:27:12.420960 106137 net.cpp:165] Memory required for data: 881571360
I0123 17:27:12.420964 106137 layer_factory.hpp:77] Creating layer fc7
I0123 17:27:12.420975 106137 net.cpp:100] Creating Layer fc7
I0123 17:27:12.420979 106137 net.cpp:434] fc7 <- fc6
I0123 17:27:12.420987 106137 net.cpp:408] fc7 -> fc7
I0123 17:27:12.457674 106137 net.cpp:150] Setting up fc7
I0123 17:27:12.457739 106137 net.cpp:157] Top shape: 128 4096 (524288)
I0123 17:27:12.457746 106137 net.cpp:165] Memory required for data: 883668512
I0123 17:27:12.457757 106137 layer_factory.hpp:77] Creating layer relu7
I0123 17:27:12.457770 106137 net.cpp:100] Creating Layer relu7
I0123 17:27:12.457777 106137 net.cpp:434] relu7 <- fc7
I0123 17:27:12.457784 106137 net.cpp:395] relu7 -> fc7 (in-place)
I0123 17:27:12.457797 106137 net.cpp:150] Setting up relu7
I0123 17:27:12.457806 106137 net.cpp:157] Top shape: 128 4096 (524288)
I0123 17:27:12.457823 106137 net.cpp:165] Memory required for data: 885765664
I0123 17:27:12.457828 106137 layer_factory.hpp:77] Creating layer drop7
I0123 17:27:12.457846 106137 net.cpp:100] Creating Layer drop7
I0123 17:27:12.457850 106137 net.cpp:434] drop7 <- fc7
I0123 17:27:12.457856 106137 net.cpp:395] drop7 -> fc7 (in-place)
I0123 17:27:12.457902 106137 net.cpp:150] Setting up drop7
I0123 17:27:12.457911 106137 net.cpp:157] Top shape: 128 4096 (524288)
I0123 17:27:12.457914 106137 net.cpp:165] Memory required for data: 887862816
I0123 17:27:12.457931 106137 layer_factory.hpp:77] Creating layer fc7_drop7_0_split
I0123 17:27:12.457978 106137 net.cpp:100] Creating Layer fc7_drop7_0_split
I0123 17:27:12.457986 106137 net.cpp:434] fc7_drop7_0_split <- fc7
I0123 17:27:12.457993 106137 net.cpp:408] fc7_drop7_0_split -> fc7_drop7_0_split_0
I0123 17:27:12.458014 106137 net.cpp:408] fc7_drop7_0_split -> fc7_drop7_0_split_1
I0123 17:27:12.458076 106137 net.cpp:150] Setting up fc7_drop7_0_split
I0123 17:27:12.458086 106137 net.cpp:157] Top shape: 128 4096 (524288)
I0123 17:27:12.458091 106137 net.cpp:157] Top shape: 128 4096 (524288)
I0123 17:27:12.458096 106137 net.cpp:165] Memory required for data: 892057120
I0123 17:27:12.458099 106137 layer_factory.hpp:77] Creating layer cls_score
I0123 17:27:12.458122 106137 net.cpp:100] Creating Layer cls_score
I0123 17:27:12.458127 106137 net.cpp:434] cls_score <- fc7_drop7_0_split_0
I0123 17:27:12.458135 106137 net.cpp:408] cls_score -> cls_score
I0123 17:27:12.459378 106137 net.cpp:150] Setting up cls_score
I0123 17:27:12.459390 106137 net.cpp:157] Top shape: 128 21 (2688)
I0123 17:27:12.459406 106137 net.cpp:165] Memory required for data: 892067872
I0123 17:27:12.459414 106137 layer_factory.hpp:77] Creating layer bbox_pred
I0123 17:27:12.459422 106137 net.cpp:100] Creating Layer bbox_pred
I0123 17:27:12.459426 106137 net.cpp:434] bbox_pred <- fc7_drop7_0_split_1
I0123 17:27:12.459434 106137 net.cpp:408] bbox_pred -> bbox_pred
I0123 17:27:12.464506 106137 net.cpp:150] Setting up bbox_pred
I0123 17:27:12.464534 106137 net.cpp:157] Top shape: 128 84 (10752)
I0123 17:27:12.464540 106137 net.cpp:165] Memory required for data: 892110880
I0123 17:27:12.464561 106137 layer_factory.hpp:77] Creating layer loss_cls
I0123 17:27:12.464587 106137 net.cpp:100] Creating Layer loss_cls
I0123 17:27:12.464594 106137 net.cpp:434] loss_cls <- cls_score
I0123 17:27:12.464601 106137 net.cpp:434] loss_cls <- labels
I0123 17:27:12.464618 106137 net.cpp:408] loss_cls -> loss_cls
…
