…
snapshot_prefix: "vgg_cnn_m_1024_fast_rcnn"
device_id: 1
train_state {
  level: 0
  stage: ""
}
average_loss: 100
I0123 17:26:26.746256 106133 solver.cpp:81] Creating training net from train_net file: models/VGG_CNN_M_1024/train.prototxt
I0123 17:26:26.747081 106133 net.cpp:58] Initializing net from parameters: 
name: "VGG_CNN_M_1024"
state {
  phase: TRAIN
  level: 0
  stage: ""
}
layer {
  name: "data"
  type: "ROIData"
  top: "data"
  top: "rois"
  top: "labels"
  top: "bbox_targets"
  top: "bbox_loss_weights"
  roi_data_param {
    config_file: "cfg/config.cfg"
  }
}
layer {
  name: "conv1"
  type: "Convolution"
  bottom: "data"
  top: "conv1"
  param {
    lr_mult: 0
    decay_mult: 0
  }
  param {
    lr_mult: 0
    decay_mult: 0
  }
  convolution_param {
    num_output: 96
    kernel_size: 7
    stride: 2
  }
}
layer {
  name: "relu1"
  type: "ReLU"
  bottom: "conv1"
  top: "conv1"
}
layer {
  name: "norm1"
  type: "LRN"
  bottom: "conv1"
  top: "norm1"
  lrn_param {
    local_size: 5
    alpha: 0.0005
    beta: 0.75
    k: 2
  }
}
layer {
  name: "pool1"
  type: "Pooling"
  bottom: "norm1"
  top: "pool1"
  pooling_param {
    pool: MAX
    kernel_size: 3
    stride: 2
  }
}
layer {
  name: "conv2"
  type: "Convolution"
  bottom: "pool1"
  top: "conv2"
  param {
    lr_mult: 1
    decay_mult: 1
  }
  param {
    lr_mult: 2
    decay_mult: 0
  }
  convolution_param {
    num_output: 256
    pad: 1
    kernel_size: 5
    stride: 2
  }
}
layer {
  name: "relu2"
  type: "ReLU"
  bottom: "conv2"
  top: "conv2"
}
layer {
  name: "norm2"
  type: "LRN"
  bottom: "conv2"
  top: "norm2"
  lrn_param {
    local_size: 5
    alpha: 0.0005
    beta: 0.75
    k: 2
  }
}
layer {
  name: "pool2"
  type: "Pooling"
  bottom: "norm2"
  top: "pool2"
  pooling_param {
    pool: MAX
    kernel_size: 3
    stride: 2
  }
}
layer {
  name: "conv3"
  type: "Convolution"
  bottom: "pool2"
  top: "conv3"
  param {
    lr_mult: 1
    decay_mult: 1
  }
  param {
    lr_mult: 2
    decay_mult: 0
  }
  convolution_param {
    num_output: 512
    pad: 1
    kernel_size: 3
  }
}
layer {
  name: "relu3"
  type: "ReLU"
  bottom: "conv3"
  top: "conv3"
}
layer {
  name: "conv4"
  type: "Convolution"
  bottom: "conv3"
  top: "conv4"
  param {
    lr_mult: 1
    decay_mult: 1
  }
  param {
    lr_mult: 2
    decay_mult: 0
  }
  convolution_param {
    num_output: 512
    pad: 1
    kernel_size: 3
  }
}
layer {
  name: "relu4"
  type: "ReLU"
  bottom: "conv4"
  top: "conv4"
}
layer {
  name: "conv5"
  type: "Convolution"
  bottom: "conv4"
  top: "conv5"
  param {
    lr_mult: 1
    decay_mult: 1
  }
  param {
    lr_mult: 2
    decay_mult: 0
  }
  convolution_param {
    num_output: 512
    pad: 1
    kernel_size: 3
  }
}
layer {
  name: "relu5"
  type: "ReLU"
  bottom: "conv5"
  top: "conv5"
}
layer {
  name: "roi_pool5"
  type: "ROIPooling"
  bottom: "conv5"
  bottom: "rois"
  top: "pool5"
  roi_pooling_param {
    pooled_h: 6
    pooled_w: 6
    spatial_scale: 0.0625
  }
}
layer {
  name: "fc6"
  type: "InnerProduct"
  bottom: "pool5"
  top: "fc6"
  param {
    lr_mult: 1
    decay_mult: 1
  }
  param {
    lr_mult: 2
    decay_mult: 0
  }
  inner_product_param {
    num_output: 4096
  }
}
layer {
  name: "relu6"
  type: "ReLU"
  bottom: "fc6"
  top: "fc6"
}
layer {
  name: "drop6"
  type: "Dropout"
  bottom: "fc6"
  top: "fc6"
  dropout_param {
    dropout_ratio: 0.5
  }
}
layer {
  name: "fc7"
  type: "InnerProduct"
  bottom: "fc6"
  top: "fc7"
  param {
    lr_mult: 1
    decay_mult: 1
  }
  param {
    lr_mult: 2
    decay_mult: 0
  }
  inner_product_param {
    num_output: 1024
  }
}
layer {
  name: "relu7"
  type: "ReLU"
  bottom: "fc7"
  top: "fc7"
}
layer {
  name: "drop7"
  type: "Dropout"
  bottom: "fc7"
  top: "fc7"
  dropout_param {
    dropout_ratio: 0.5
  }
}
layer {
  name: "cls_score"
  type: "InnerProduct"
  bottom: "fc7"
  top: "cls_score"
  param {
    lr_mult: 1
    decay_mult: 1
  }
  param {
    lr_mult: 2
    decay_mult: 0
  }
  inner_product_param {
    num_output: 21
    weight_filler {
      type: "gaussian"
      std: 0.01
    }
    bias_filler {
      type: "constant"
      value: 0
    }
  }
}
layer {
  name: "bbox_pred"
  type: "InnerProduct"
  bottom: "fc7"
  top: "bbox_pred"
  param {
    lr_mult: 1
    decay_mult: 1
  }
  param {
    lr_mult: 2
    decay_mult: 0
  }
  inner_product_param {
    num_output: 84
    weight_filler {
      type: "gaussian"
      std: 0.001
    }
    bias_filler {
      type: "constant"
      value: 0
    }
  }
}
layer {
  name: "loss_cls"
  type: "SoftmaxWithLoss"
  bottom: "cls_score"
  bottom: "labels"
  top: "loss_cls"
  loss_weight: 1
}
layer {
  name: "loss_bbox"
  type: "SmoothL1Loss"
  bottom: "bbox_pred"
  bottom: "bbox_targets"
  bottom: "bbox_loss_weights"
  top: "loss_bbox"
  loss_weight: 1
}
I0123 17:26:26.747258 106133 layer_factory.hpp:77] Creating layer data
I0123 17:26:26.747326 106133 net.cpp:100] Creating Layer data
I0123 17:26:26.747349 106133 net.cpp:408] data -> data
I0123 17:26:26.747382 106133 net.cpp:408] data -> rois
I0123 17:26:26.747395 106133 net.cpp:408] data -> labels
I0123 17:26:26.747413 106133 net.cpp:408] data -> bbox_targets
I0123 17:26:26.747419 106133 net.cpp:408] data -> bbox_loss_weights

I0123 17:26:26.762346 106133 roi_data_extractor.cpp:131] Parse xml files
I0123 17:26:28.372498 106133 roi_data_extractor.cpp:176] Parse object proposals
I0123 17:26:30.723754 106133 roi_data_extractor.cpp:202] Compute overlaps
I0123 17:26:37.327122 106133 roi_data_extractor.cpp:254] Appending horizontally-flipped training examples
I0123 17:26:51.559581 106133 roi_data_extractor.cpp:276] Compute regression target
I0123 17:26:53.798846 106133 roi_data_extractor.cpp:344] Compute mean and stdev
I0123 17:26:54.192112 106133 roi_data_extractor.cpp:427] Number of training examples: 10022
I0123 17:27:02.947685 106133 net.cpp:150] Setting up data
I0123 17:27:02.947835 106133 net.cpp:157] Top shape: 2 3 375 500 (1125000)
I0123 17:27:02.947846 106133 net.cpp:157] Top shape: 128 5 1 1 (640)
I0123 17:27:02.947854 106133 net.cpp:157] Top shape: 128 1 1 1 (128)
I0123 17:27:02.947860 106133 net.cpp:157] Top shape: 128 84 1 1 (10752)
I0123 17:27:02.947868 106133 net.cpp:157] Top shape: 128 84 1 1 (10752)
I0123 17:27:02.947873 106133 net.cpp:165] Memory required for data: 4589088
I0123 17:27:02.947919 106133 layer_factory.hpp:77] Creating layer conv1
I0123 17:27:02.948029 106133 net.cpp:100] Creating Layer conv1
I0123 17:27:02.948040 106133 net.cpp:434] conv1 <- data
I0123 17:27:02.948098 106133 net.cpp:408] conv1 -> conv1
I0123 17:27:02.949194 106133 net.cpp:150] Setting up conv1
I0123 17:27:02.949209 106133 net.cpp:157] Top shape: 2 96 185 247 (8773440)
I0123 17:27:02.949225 106133 net.cpp:165] Memory required for data: 39682848
I0123 17:27:02.949244 106133 layer_factory.hpp:77] Creating layer relu1
I0123 17:27:02.949288 106133 net.cpp:100] Creating Layer relu1
I0123 17:27:02.949295 106133 net.cpp:434] relu1 <- conv1
I0123 17:27:02.949301 106133 net.cpp:395] relu1 -> conv1 (in-place)
I0123 17:27:02.949324 106133 net.cpp:150] Setting up relu1
I0123 17:27:02.949331 106133 net.cpp:157] Top shape: 2 96 185 247 (8773440)
I0123 17:27:02.949336 106133 net.cpp:165] Memory required for data: 74776608
I0123 17:27:02.949352 106133 layer_factory.hpp:77] Creating layer norm1
I0123 17:27:02.949373 106133 net.cpp:100] Creating Layer norm1
I0123 17:27:02.949379 106133 net.cpp:434] norm1 <- conv1
I0123 17:27:02.949386 106133 net.cpp:408] norm1 -> norm1
I0123 17:27:02.949491 106133 net.cpp:150] Setting up norm1
I0123 17:27:02.949509 106133 net.cpp:157] Top shape: 2 96 185 247 (8773440)
I0123 17:27:02.949514 106133 net.cpp:165] Memory required for data: 109870368
I0123 17:27:02.949530 106133 layer_factory.hpp:77] Creating layer pool1
I0123 17:27:02.949548 106133 net.cpp:100] Creating Layer pool1
I0123 17:27:02.949551 106133 net.cpp:434] pool1 <- norm1
I0123 17:27:02.949558 106133 net.cpp:408] pool1 -> pool1
I0123 17:27:02.949648 106133 net.cpp:150] Setting up pool1
I0123 17:27:02.949657 106133 net.cpp:157] Top shape: 2 96 92 123 (2172672)
I0123 17:27:02.949662 106133 net.cpp:165] Memory required for data: 118561056
I0123 17:27:02.949666 106133 layer_factory.hpp:77] Creating layer conv2
I0123 17:27:02.949677 106133 net.cpp:100] Creating Layer conv2
I0123 17:27:02.949683 106133 net.cpp:434] conv2 <- pool1
I0123 17:27:02.949692 106133 net.cpp:408] conv2 -> conv2
I0123 17:27:02.951973 106133 net.cpp:150] Setting up conv2
I0123 17:27:02.951989 106133 net.cpp:157] Top shape: 2 256 45 61 (1405440)
I0123 17:27:02.952005 106133 net.cpp:165] Memory required for data: 124182816
I0123 17:27:02.952015 106133 layer_factory.hpp:77] Creating layer relu2
I0123 17:27:02.952025 106133 net.cpp:100] Creating Layer relu2
I0123 17:27:02.952033 106133 net.cpp:434] relu2 <- conv2
I0123 17:27:02.952050 106133 net.cpp:395] relu2 -> conv2 (in-place)
I0123 17:27:02.952069 106133 net.cpp:150] Setting up relu2
I0123 17:27:02.952075 106133 net.cpp:157] Top shape: 2 256 45 61 (1405440)
I0123 17:27:02.952080 106133 net.cpp:165] Memory required for data: 129804576
I0123 17:27:02.952083 106133 layer_factory.hpp:77] Creating layer norm2
I0123 17:27:02.952105 106133 net.cpp:100] Creating Layer norm2
I0123 17:27:02.952111 106133 net.cpp:434] norm2 <- conv2
I0123 17:27:02.952117 106133 net.cpp:408] norm2 -> norm2
I0123 17:27:02.952169 106133 net.cpp:150] Setting up norm2
I0123 17:27:02.952190 106133 net.cpp:157] Top shape: 2 256 45 61 (1405440)
I0123 17:27:02.952194 106133 net.cpp:165] Memory required for data: 135426336
I0123 17:27:02.952198 106133 layer_factory.hpp:77] Creating layer pool2
I0123 17:27:02.952208 106133 net.cpp:100] Creating Layer pool2
I0123 17:27:02.952214 106133 net.cpp:434] pool2 <- norm2
I0123 17:27:02.952232 106133 net.cpp:408] pool2 -> pool2
I0123 17:27:02.952280 106133 net.cpp:150] Setting up pool2
I0123 17:27:02.952289 106133 net.cpp:157] Top shape: 2 256 22 30 (337920)
I0123 17:27:02.952294 106133 net.cpp:165] Memory required for data: 136778016
I0123 17:27:02.952312 106133 layer_factory.hpp:77] Creating layer conv3
I0123 17:27:02.952324 106133 net.cpp:100] Creating Layer conv3
I0123 17:27:02.952329 106133 net.cpp:434] conv3 <- pool2
I0123 17:27:02.952337 106133 net.cpp:408] conv3 -> conv3
I0123 17:27:02.955263 106133 net.cpp:150] Setting up conv3
I0123 17:27:02.955278 106133 net.cpp:157] Top shape: 2 512 22 30 (675840)
I0123 17:27:02.955296 106133 net.cpp:165] Memory required for data: 139481376
I0123 17:27:02.955304 106133 layer_factory.hpp:77] Creating layer relu3
I0123 17:27:02.955313 106133 net.cpp:100] Creating Layer relu3
I0123 17:27:02.955317 106133 net.cpp:434] relu3 <- conv3
I0123 17:27:02.955327 106133 net.cpp:395] relu3 -> conv3 (in-place)
I0123 17:27:02.955346 106133 net.cpp:150] Setting up relu3
I0123 17:27:02.955351 106133 net.cpp:157] Top shape: 2 512 22 30 (675840)
I0123 17:27:02.955356 106133 net.cpp:165] Memory required for data: 142184736
I0123 17:27:02.955363 106133 layer_factory.hpp:77] Creating layer conv4
I0123 17:27:02.955373 106133 net.cpp:100] Creating Layer conv4
I0123 17:27:02.955379 106133 net.cpp:434] conv4 <- conv3
I0123 17:27:02.955397 106133 net.cpp:408] conv4 -> conv4
I0123 17:27:02.960777 106133 net.cpp:150] Setting up conv4
I0123 17:27:02.960814 106133 net.cpp:157] Top shape: 2 512 22 30 (675840)
I0123 17:27:02.960820 106133 net.cpp:165] Memory required for data: 144888096
I0123 17:27:02.960829 106133 layer_factory.hpp:77] Creating layer relu4
I0123 17:27:02.960839 106133 net.cpp:100] Creating Layer relu4
I0123 17:27:02.960844 106133 net.cpp:434] relu4 <- conv4
I0123 17:27:02.960852 106133 net.cpp:395] relu4 -> conv4 (in-place)
I0123 17:27:02.960863 106133 net.cpp:150] Setting up relu4
I0123 17:27:02.960881 106133 net.cpp:157] Top shape: 2 512 22 30 (675840)
I0123 17:27:02.960886 106133 net.cpp:165] Memory required for data: 147591456
I0123 17:27:02.960891 106133 layer_factory.hpp:77] Creating layer conv5
I0123 17:27:02.960902 106133 net.cpp:100] Creating Layer conv5
I0123 17:27:02.960906 106133 net.cpp:434] conv5 <- conv4
I0123 17:27:02.960912 106133 net.cpp:408] conv5 -> conv5
I0123 17:27:02.966159 106133 net.cpp:150] Setting up conv5
I0123 17:27:02.966197 106133 net.cpp:157] Top shape: 2 512 22 30 (675840)
I0123 17:27:02.966202 106133 net.cpp:165] Memory required for data: 150294816
I0123 17:27:02.966218 106133 layer_factory.hpp:77] Creating layer relu5
I0123 17:27:02.966686 106133 net.cpp:100] Creating Layer relu5
I0123 17:27:02.966703 106133 net.cpp:434] relu5 <- conv5
I0123 17:27:02.966727 106133 net.cpp:395] relu5 -> conv5 (in-place)
I0123 17:27:02.966748 106133 net.cpp:150] Setting up relu5
I0123 17:27:02.966755 106133 net.cpp:157] Top shape: 2 512 22 30 (675840)
I0123 17:27:02.966775 106133 net.cpp:165] Memory required for data: 152998176
I0123 17:27:02.966792 106133 layer_factory.hpp:77] Creating layer roi_pool5
I0123 17:27:02.968103 106133 net.cpp:100] Creating Layer roi_pool5
I0123 17:27:02.968140 106133 net.cpp:434] roi_pool5 <- conv5
I0123 17:27:02.968159 106133 net.cpp:434] roi_pool5 <- rois
I0123 17:27:02.968168 106133 net.cpp:408] roi_pool5 -> pool5
I0123 17:27:02.968678 106133 roi_pooling_layer.cpp:22] Spatial scale: 0.0625
I0123 17:27:02.970772 106133 net.cpp:150] Setting up roi_pool5
I0123 17:27:02.970827 106133 net.cpp:157] Top shape: 128 512 6 6 (2359296)
I0123 17:27:02.970832 106133 net.cpp:165] Memory required for data: 162435360
I0123 17:27:02.970837 106133 layer_factory.hpp:77] Creating layer fc6
I0123 17:27:02.971897 106133 net.cpp:100] Creating Layer fc6
I0123 17:27:02.971925 106133 net.cpp:434] fc6 <- pool5
I0123 17:27:02.971969 106133 net.cpp:408] fc6 -> fc6
I0123 17:27:03.160877 106133 net.cpp:150] Setting up fc6
I0123 17:27:03.160934 106133 net.cpp:157] Top shape: 128 4096 (524288)
I0123 17:27:03.160940 106133 net.cpp:165] Memory required for data: 164532512
I0123 17:27:03.160953 106133 layer_factory.hpp:77] Creating layer relu6
I0123 17:27:03.160977 106133 net.cpp:100] Creating Layer relu6
I0123 17:27:03.160984 106133 net.cpp:434] relu6 <- fc6
I0123 17:27:03.160995 106133 net.cpp:395] relu6 -> fc6 (in-place)
I0123 17:27:03.161036 106133 net.cpp:150] Setting up relu6
I0123 17:27:03.161044 106133 net.cpp:157] Top shape: 128 4096 (524288)
I0123 17:27:03.161048 106133 net.cpp:165] Memory required for data: 166629664
I0123 17:27:03.161052 106133 layer_factory.hpp:77] Creating layer drop6
I0123 17:27:03.161068 106133 net.cpp:100] Creating Layer drop6
I0123 17:27:03.161074 106133 net.cpp:434] drop6 <- fc6
I0123 17:27:03.161079 106133 net.cpp:395] drop6 -> fc6 (in-place)
I0123 17:27:03.161104 106133 net.cpp:150] Setting up drop6
I0123 17:27:03.161113 106133 net.cpp:157] Top shape: 128 4096 (524288)
I0123 17:27:03.161116 106133 net.cpp:165] Memory required for data: 168726816
I0123 17:27:03.161123 106133 layer_factory.hpp:77] Creating layer fc7
I0123 17:27:03.161134 106133 net.cpp:100] Creating Layer fc7
I0123 17:27:03.161137 106133 net.cpp:434] fc7 <- fc6
I0123 17:27:03.161145 106133 net.cpp:408] fc7 -> fc7
I0123 17:27:03.175137 106133 net.cpp:150] Setting up fc7
I0123 17:27:03.175194 106133 net.cpp:157] Top shape: 128 1024 (131072)
I0123 17:27:03.175199 106133 net.cpp:165] Memory required for data: 169251104
I0123 17:27:03.175213 106133 layer_factory.hpp:77] Creating layer relu7
I0123 17:27:03.175240 106133 net.cpp:100] Creating Layer relu7
I0123 17:27:03.175246 106133 net.cpp:434] relu7 <- fc7
I0123 17:27:03.175256 106133 net.cpp:395] relu7 -> fc7 (in-place)
I0123 17:27:03.175269 106133 net.cpp:150] Setting up relu7
I0123 17:27:03.175274 106133 net.cpp:157] Top shape: 128 1024 (131072)
I0123 17:27:03.175278 106133 net.cpp:165] Memory required for data: 169775392
I0123 17:27:03.175282 106133 layer_factory.hpp:77] Creating layer drop7
I0123 17:27:03.175297 106133 net.cpp:100] Creating Layer drop7
I0123 17:27:03.175300 106133 net.cpp:434] drop7 <- fc7
I0123 17:27:03.175307 106133 net.cpp:395] drop7 -> fc7 (in-place)
I0123 17:27:03.175326 106133 net.cpp:150] Setting up drop7
I0123 17:27:03.175339 106133 net.cpp:157] Top shape: 128 1024 (131072)
I0123 17:27:03.175343 106133 net.cpp:165] Memory required for data: 170299680
I0123 17:27:03.175348 106133 layer_factory.hpp:77] Creating layer fc7_drop7_0_split
I0123 17:27:03.175379 106133 net.cpp:100] Creating Layer fc7_drop7_0_split
I0123 17:27:03.175384 106133 net.cpp:434] fc7_drop7_0_split <- fc7
I0123 17:27:03.175393 106133 net.cpp:408] fc7_drop7_0_split -> fc7_drop7_0_split_0
I0123 17:27:03.175402 106133 net.cpp:408] fc7_drop7_0_split -> fc7_drop7_0_split_1
I0123 17:27:03.175438 106133 net.cpp:150] Setting up fc7_drop7_0_split
I0123 17:27:03.175449 106133 net.cpp:157] Top shape: 128 1024 (131072)
I0123 17:27:03.175453 106133 net.cpp:157] Top shape: 128 1024 (131072)
I0123 17:27:03.175457 106133 net.cpp:165] Memory required for data: 171348256
I0123 17:27:03.175462 106133 layer_factory.hpp:77] Creating layer cls_score
I0123 17:27:03.175475 106133 net.cpp:100] Creating Layer cls_score
I0123 17:27:03.175480 106133 net.cpp:434] cls_score <- fc7_drop7_0_split_0
I0123 17:27:03.175488 106133 net.cpp:408] cls_score -> cls_score
I0123 17:27:03.175983 106133 net.cpp:150] Setting up cls_score
I0123 17:27:03.175993 106133 net.cpp:157] Top shape: 128 21 (2688)
I0123 17:27:03.176009 106133 net.cpp:165] Memory required for data: 171359008
I0123 17:27:03.176017 106133 layer_factory.hpp:77] Creating layer bbox_pred
I0123 17:27:03.176025 106133 net.cpp:100] Creating Layer bbox_pred
I0123 17:27:03.176029 106133 net.cpp:434] bbox_pred <- fc7_drop7_0_split_1
I0123 17:27:03.176049 106133 net.cpp:408] bbox_pred -> bbox_pred
I0123 17:27:03.178282 106133 net.cpp:150] Setting up bbox_pred
I0123 17:27:03.178316 106133 net.cpp:157] Top shape: 128 84 (10752)
I0123 17:27:03.178323 106133 net.cpp:165] Memory required for data: 171402016
I0123 17:27:03.178340 106133 layer_factory.hpp:77] Creating layer loss_cls
I0123 17:27:03.178366 106133 net.cpp:100] Creating Layer loss_cls
I0123 17:27:03.178372 106133 net.cpp:434] loss_cls <- cls_score
I0123 17:27:03.178378 106133 net.cpp:434] loss_cls <- labels
I0123 17:27:03.178386 106133 net.cpp:408] loss_cls -> loss_cls
…
